mpipe_bface_boxes_ops16.onnx (onnx, 535628 bytes, 73 tensors)

const_fold_opt__487 f4 [48, 1, 3, 3]
0.97998047 0.75878906 -0.60546875 -0.15673828 -1.1826172 -0.4873047 -1.1660156 -1.2880859
-0.30078125 0.7207031 1.0488281 0.703125 0.48413086 0.9633789 0.08709717 -0.036987305
-0.23828125 -0.011932373 0.17480469 1.0146484 0.2298584 0.9946289 1.9638672 0.074157715
0.39111328 0.3552246 -0.1586914 -0.035980225 -1.1142578 0.58691406 -0.09295654 1.0244141
0.9941406 0.18737793 1.0234375 -0.14135742 -0.7524414 -2.328125 -1.0634766 -0.12548828
0.24414062 0.13769531 0.8510742 0.3088379 0.030166626 -0.3161621 0.16320801 0.22265625
-0.29760742 -2.3222656 -0.16699219 -0.59814453 -0.32641602 -0.46362305 -0.03729248 1.3261719
1.3955078 -0.44604492 0.21350098 0.8027344 0.08392334 -0.079833984 -0.054229736 0.5805664
-0.30688477 -0.44335938 0.51220703 -0.87353516 -1.5703125 0.32666016 0.05911255 -0.46801758
-0.4333496 -1.1777344 -0.49609375 -0.37524414 -2.2871094 -0.09576416 -0.4494629 -0.16796875
-0.07281494 -0.76708984 0.3293457 -0.4345703 -1.5703125 1.1162109 1.6347656 -0.7729492
-0.8515625 0.14685059 -0.8828125 -0.93066406 0.05960083 -1.0048828 -1.0068359 -0.6225586
-0.40771484 -0.18273926 -0.81347656 1.2597656 0.70751953 0.073791504 0.3671875 0.76123047
0.3076172 0.43896484 0.44604492 0.28076172 0.62597656 0.80859375 0.6723633 -0.016845703
-2.2207031 0.22729492 -0.97216797 -0.4050293 0.062561035 0.5810547 0.79003906 1.0625
0.64160156 0.3059082 -0.22155762 0.14978027 -1.6855469 -0.55810547 -0.7788086 -0.88183594
-1.4482422 -0.12609863 -0.39404297 -0.7734375 -0.12475586 0.19458008 0.3491211 0.023605347
0.91503906 -0.10827637 -0.60595703 1.3847656 -0.24511719 -1.0 -1.4013672 -0.4296875
1.0517578 1.0898438 0.97509766 0.95751953 0.45922852 0.3269043 0.44360352 0.092285156
-0.07635498 1.3701172 1.0039062 0.22729492 0.91015625 0.9169922 -0.35424805 -1.4638672
-0.9091797 0.33129883 -0.013885498 -0.25952148 -0.3425293 -0.12243652 -0.2286377 -0.7680664
0.9316406 2.4472656 -0.5209961 -0.5263672 -1.2753906 -0.14880371 0.30932617 -1.9677734
-0.22216797 0.38891602 0.48266602 0.68066406 0.6923828 -0.038208008 -0.8100586 0.04006958
-1.8740234 -1.1328125 0.097473145 0.30908203 0.5595703 -0.48535156 -0.64160156 0.15454102
-0.7602539 -1.8652344 -0.2824707 -0.24963379 -0.38012695 -0.103393555 1.4267578 1.3642578
0.70947266 0.9741211 -0.018356323 0.59228516 0.48217773 0.26416016 0.22302246 0.77246094
1.1904297 -0.24536133 0.18884277 -0.7006836 -1.2617188 0.32104492 0.033447266 -0.6069336
-0.5336914 0.19470215 -0.45581055 0.79541016 1.1689453 0.29370117 0.7607422 0.029067993
-0.36645508 -0.31445312 0.19787598 1.4267578 -0.30688477 0.5102539 1.5419922 0.51464844
-0.020599365 -0.06317139 -0.13305664 0.98876953 1.5634766 -0.5234375 0.8149414 1.2617188
-0.1459961 -0.39135742 0.52441406 -1.25 -1.5859375 0.058044434 -1.2119141 -0.32177734
0.19433594 -0.42700195 0.06768799 0.42138672 1.4980469 0.39672852 -0.8208008 1.4023438
00000000: 00e0 7a3f 0040 423f 0000 1bbf 0080 20be
00000010: 0060 97bf 0080 f9be 0040 95bf 00e0 a4bf
00000020: 0000 9abe 0080 383f 0040 863f 0000 343f
00000030: 00e0 f73e 00a0 763f 0060 b23d 0080 17bd
00000040: 0000 74be 0080 43bc 0000 333e 00e0 813f
00000050: 0060 6b3e 00a0 7e3f 0060 fb3f 00e0 973d
00000060: 0040 c83e 00e0 b53e 0080 22be 0060 13bd
00000070: 00a0 8ebf 0040 163f 0060 bebd 0020 833f
00000080: 0080 7e3f 00e0 3f3e 0000 833f 00c0 10be
00000090: 00a0 40bf 0000 15c0 0020 88bf 0080 00be
000000a0: 0000 7a3e 0000 0d3e 00e0 593f 0020 9e3e
000000b0: 0020 f73c 00e0 a1be 0020 273e 0000 643e
000000c0: 0060 98be 00a0 14c0 0000 2bbe 0020 19bf
000000d0: 0020 a7be 0060 edbe 00c0 18bd 00c0 a93f
000000e0: 00a0 b23f 0060 e4be 00a0 5a3e 0080 4d3f
000000f0: 00e0 ab3d 0080 a3bd 0020 5ebd 00a0 143f
00000100: 0020 9dbe 0000 e3be 0020 033f 00a0 5fbf
00000110: 0000 c9bf 0040 a73e 0020 723d 00a0 efbe
00000120: 00e0 ddbe 00c0 96bf 0000 febe 0020 c0be
00000130: 0060 12c0 0020 c4bd 0020 e6be 0000 2cbe
00000140: 0020 95bd 0060 44bf 00a0 a83e 0080 debe
00000150: 0000 c9bf 00e0 8e3f 0040 d13f 00e0 45bf
00000160: 0000 5abf 0060 163e 0000 62bf 0040 6ebf
00000170: 0020 743d 00a0 80bf 00e0 80bf 0060 1fbf
00000180: 00c0 d0be 0020 3bbe 0040 50bf 0040 a13f
00000190: 0020 353f 0020 973d 0000 bc3e 00e0 423f
000001a0: 0080 9d3e 00c0 e03e 0060 e43e 00c0 8f3e
000001b0: 0040 203f 0000 4f3f 0020 2c3f 0000 8abc
000001c0: 0020 0ec0 00c0 683e 00e0 78bf 0060 cfbe
000001d0: 0020 803d 00c0 143f 0040 4a3f 0000 883f
000001e0: 0040 243f 00a0 9c3e 00e0 62be 0060 193e
000001f0: 00c0 d7bf 00e0 0ebf 0060 47bf 00c0 61bf
00000200: 0060 b9bf 0020 01be 00c0 c9be 0000 46bf
00000210: 0080 ffbd 0040 473e 00c0 b23e 0060 c13c
00000220: 0040 6a3f 00c0 ddbd 0020 1bbf 0040 b13f
00000230: 0000 7bbe 0000 80bf 0060 b3bf 0000 dcbe
00000240: 00a0 863f 0080 8b3f 00a0 793f 0020 753f
00000250: 0020 eb3e 0060 a73e 0020 e33e 0000 bd3d
00000260: 0060 9cbd 0060 af3f 0080 803f 00c0 683e
00000270: 0000 693f 00c0 6a3f 0060 b5be 0060 bbbf
00000280: 00c0 68bf 00a0 a93e 0080 63bc 00e0 84be
00000290: 0060 afbe 00c0 fabd 0020 6abe 00a0 44bf
000002a0: 0080 6e3f 00a0 1c40 0060 05bf 00c0 06bf
000002b0: 0040 a3bf 0060 18be 0060 9e3e 00e0 fbbf
000002c0: 0080 63be 0020 c73e 0020 f73e 0040 2e3f
000002d0: 0040 313f 0080 1cbd 0060 4fbf 0020 243d
000002e0: 00e0 efbf 0000 91bf 00a0 c73d 0040 9e3e
000002f0: 0040 0f3f 0080 f8be 0040 24bf 0040 1e3e
00000300: 00a0 42bf 00c0 eebf 00a0 90be 00a0 7fbe
00000310: 00a0 c2be 00c0 d3bd 00a0 b63f 00a0 ae3f
00000320: 00a0 353f 0060 793f 0060 96bc 00a0 173f
00000330: 00e0 f63e 0040 873e 0060 643e 00c0 453f
00000340: 0060 983f 0040 7bbe 0060 413e 0060 33bf
00000350: 0080 a1bf 0060 a43e 0000 093d 0060 1bbf
00000360: 00a0 08bf 0060 473e 0060 e9be 00a0 4b3f
00000370: 00a0 953f 0060 963e 00c0 423f 0020 ee3c
00000380: 00a0 bbbe 0000 a1be 00a0 4a3e 00a0 b63f
00000390: 0020 9dbe 00a0 023f 0060 c53f 00c0 033f
000003a0: 00c0 a8bc 0060 81bd 0040 08be 0020 7d3f
000003b0: 0020 c83f 0000 06bf 00a0 503f 0080 a13f
000003c0: 0080 15be 0060 c8be 0040 063f 0000 a0bf
000003d0: 0000 cbbf 00c0 6d3d 0020 9bbf 00c0 a4be
000003e0: 0000 473e 00a0 dabe 00a0 8a3d 00c0 d73e
000003f0: 00c0 bf3f 0020 cb3e 0020 52bf 0080 b33f

const_fold_opt__486 f4 [96, 1, 3, 3]
1.5507812 1.8300781 -0.3059082 -0.2861328 1.7128906 -3.2519531 0.34204102 -3.0996094
-1.2138672 -1.2890625 -0.12768555 0.24108887 -0.66308594 0.6357422 1.3935547 0.07110596
1.5830078 2.4296875 -0.19555664 -1.2734375 -1.40625 0.06402588 -0.020187378 -0.25830078
0.14538574 -0.20019531 -0.38891602 1.2148438 0.33642578 -0.6328125 1.0732422 1.3193359
-0.47924805 0.9580078 1.6318359 -0.15698242 -1.6611328 -1.2265625 -1.4296875 -1.1435547
-3.8808594 -1.2236328 -0.23583984 -1.2363281 -0.63964844 -1.2158203 0.07696533 0.72509766
-2.9804688 -0.6635742 1.1171875 -2.0449219 -1.7382812 0.07800293 -3.6113281 -1.8623047
0.1373291 -1.5927734 1.6230469 0.7709961 0.0013713837 0.6064453 1.0 -0.97314453
0.6201172 2.6015625 -1.6582031 -0.17456055 1.140625 -0.31030273 -0.60498047 0.42382812
0.9868164 1.3251953 0.43041992 0.21386719 0.090270996 -0.5566406 -0.53808594 -1.0820312
-0.23413086 1.8613281 -1.0078125 -1.5273438 -0.008117676 1.3173828 -0.62646484 -1.2988281
1.6171875 1.2294922 2.125 3.109375 0.099975586 2.046875 2.7695312 0.77685547
-0.41430664 -0.29638672 -0.22436523 -0.9892578 -0.95166016 -0.72802734 -0.38476562 -2.3417969
1.0380859 0.005996704 0.91503906 0.99853516 2.6523438 -1.0458984 1.6347656 -0.05859375
-2.7109375 -1.9892578 -1.8652344 -1.5302734 -1.8544922 -0.22607422 -0.4165039 -1.0693359
-0.011680603 0.6040039 -0.72509766 -0.7338867 -0.2915039 -0.5488281 -0.92822266 0.43017578
-0.14672852 -3.1054688 -1.6005859 -1.6123047 -3.3847656 -1.8623047 -0.5888672 -0.8334961
-0.90771484 -0.64208984 -1.1884766 -0.39770508 1.0966797 -1.2949219 -1.2519531 -0.6225586
2.7675781 0.9243164 -0.0970459 1.8896484 1.5615234 1.2255859 0.81103516 -0.734375
0.047424316 0.21972656 -0.43676758 -0.41479492 -0.56689453 -0.96484375 -1.2197266 -1.71875
-1.2792969 -0.76904297 -0.55908203 -0.9736328 -1.2119141 -1.1933594 1.7558594 -0.2097168
-0.9848633 -0.44482422 0.1385498 -1.0976562 -0.8071289 -0.46777344 -1.9013672 0.7246094
-0.101989746 -1.546875 -0.35302734 -1.4482422 0.14465332 -0.359375 -0.33447266 -0.57177734
-1.2070312 -0.93652344 -0.5239258 -1.1308594 -0.61035156 1.2021484 0.10192871 0.5854492
1.0429688 -2.0976562 0.049743652 -0.0715332 -1.2382812 -0.8935547 1.8271484 3.6933594
2.7675781 3.4453125 2.9667969 0.79052734 2.1992188 1.9082031 -0.47265625 1.1191406
1.5058594 1.0859375 2.4160156 1.2597656 -0.64746094 -0.2626953 -0.66015625 -1.1884766
0.9121094 3.7382812 0.24829102 -0.16577148 2.4960938 -1.7138672 -1.0527344 0.1315918
-1.0664062 1.5234375 1.7753906 1.2177734 0.97998047 0.48413086 -0.08062744 -0.5810547
0.26489258 -0.57128906 -1.328125 -0.7832031 -1.2548828 -1.3632812 -2.2285156 -0.4560547
-0.98779297 0.9667969 0.5307617 -0.5180664 -0.33081055 -0.6201172 0.7050781 -3.0664062
-0.6723633 1.3828125 0.15844727 0.028335571 0.026138306 -0.17004395 -1.3818359 0.5605469
00000000: 0080 c63f 0040 ea3f 00a0 9cbe 0080 92be
00000010: 0040 db3f 0020 50c0 0020 af3e 0060 46c0
00000020: 0060 9bbf 0000 a5bf 00c0 02be 00e0 763e
00000030: 00c0 29bf 00c0 223f 0060 b23f 00a0 913d
00000040: 00a0 ca3f 0080 1b40 0040 48be 0000 a3bf
00000050: 0000 b4bf 0020 833d 0060 a5bc 0040 84be
00000060: 00e0 143e 0000 4dbe 0020 c7be 0080 9b3f
00000070: 0040 ac3e 0000 22bf 0060 893f 00e0 a83f
00000080: 0060 f5be 0040 753f 00e0 d03f 00c0 20be
00000090: 00a0 d4bf 0000 9dbf 0000 b7bf 0060 92bf
000000a0: 0060 78c0 00a0 9cbf 0080 71be 0040 9ebf
000000b0: 00c0 23bf 00a0 9bbf 00a0 9d3d 00a0 393f
000000c0: 00c0 3ec0 00e0 29bf 0000 8f3f 00e0 02c0
000000d0: 0080 debf 00c0 9f3d 0020 67c0 0060 eebf
000000e0: 00a0 0c3e 00e0 cbbf 00c0 cf3f 0060 453f
000000f0: 00c0 b33a 0040 1b3f 0000 803f 0020 79bf
00000100: 00c0 1e3f 0080 2640 0040 d4bf 00c0 32be
00000110: 0000 923f 00e0 9ebe 00e0 1abf 0000 d93e
00000120: 00a0 7c3f 00a0 a93f 0060 dc3e 0000 5b3e
00000130: 00e0 b83d 0080 0ebf 00c0 09bf 0080 8abf
00000140: 00c0 6fbe 0040 ee3f 0000 81bf 0080 c3bf
00000150: 0000 05bc 00a0 a83f 0060 20bf 0040 a6bf
00000160: 0000 cf3f 0060 9d3f 0000 0840 0000 4740
00000170: 00c0 cc3d 0000 0340 0040 3140 00e0 463f
00000180: 0020 d4be 00c0 97be 00c0 65be 0040 7dbf
00000190: 00a0 73bf 0060 3abf 0000 c5be 00e0 15c0
000001a0: 00e0 843f 0080 c43b 0040 6a3f 00a0 7f3f
000001b0: 00c0 2940 00e0 85bf 0040 d13f 0000 70bd
000001c0: 0080 2dc0 00a0 febf 00c0 eebf 00e0 c3bf
000001d0: 0060 edbf 0080 67be 0040 d5be 00e0 88bf
000001e0: 0060 3fbc 00a0 1a3f 00a0 39bf 00e0 3bbf
000001f0: 0040 95be 0080 0cbf 00a0 6dbf 0040 dc3e
00000200: 0040 16be 00c0 46c0 00e0 ccbf 0060 cebf
00000210: 00a0 58c0 0060 eebf 00c0 16bf 0060 55bf
00000220: 0060 68bf 0060 24bf 0020 98bf 00a0 cbbe
00000230: 0060 8c3f 00c0 a5bf 0040 a0bf 0060 1fbf
00000240: 0020 3140 00a0 6c3f 00c0 c6bd 00e0 f13f
00000250: 00e0 c73f 00e0 9c3f 00a0 4f3f 0000 3cbf
00000260: 0040 423d 0000 613e 00a0 dfbe 0060 d4be
00000270: 0020 11bf 0000 77bf 0020 9cbf 0000 dcbf
00000280: 00c0 a3bf 00e0 44bf 0020 0fbf 0040 79bf
00000290: 0020 9bbf 00c0 98bf 00c0 e03f 00c0 56be
000002a0: 0020 7cbf 00c0 e3be 00e0 0d3e 0080 8cbf
000002b0: 00a0 4ebf 0080 efbe 0060 f3bf 0080 393f
000002c0: 00e0 d0bd 0000 c6bf 00c0 b4be 0060 b9bf
000002d0: 0020 143e 0000 b8be 0040 abbe 0060 12bf
000002e0: 0080 9abf 00c0 6fbf 0020 06bf 00c0 90bf
000002f0: 0040 1cbf 00e0 993f 00c0 d03d 00e0 153f
00000300: 0080 853f 0040 06c0 00c0 4b3d 0080 92bd
00000310: 0080 9ebf 00c0 64bf 00e0 e93f 0060 6c40
00000320: 0020 3140 0080 5c40 00e0 3d40 0060 4a3f
00000330: 00c0 0c40 0040 f43f 0000 f2be 0040 8f3f
00000340: 00c0 c03f 0000 8b3f 00a0 1a40 0040 a13f
00000350: 00c0 25bf 0080 86be 0000 29bf 0020 98bf
00000360: 0080 693f 0040 6f40 0040 7e3e 00c0 29be
00000370: 00c0 1f40 0060 dbbf 00c0 86bf 00c0 063e
00000380: 0080 88bf 0000 c33f 0040 e33f 00e0 9b3f
00000390: 00e0 7a3f 00e0 f73e 0020 a5bd 00c0 14bf
000003a0: 00a0 873e 0040 12bf 0000 aabf 0080 48bf
000003b0: 00a0 a0bf 0080 aebf 00a0 0ec0 0080 e9be
000003c0: 00e0 7cbf 0080 773f 00e0 073f 00a0 04bf
000003d0: 0060 a9be 00c0 1ebf 0080 343f 0040 44c0
000003e0: 0020 2cbf 0000 b13f 0040 223e 0020 e83c
000003f0: 0020 d63c 0020 2ebe 00e0 b0bf 0080 0f3f

const_fold_opt__485 f4 [96, 96, 1, 1]
-0.39379883 1.3652344 0.8066406 0.45239258 0.25683594 -0.1194458 3.5 0.60009766
1.1835938 -0.41918945 0.5102539 -0.5136719 -0.25830078 -0.12805176 0.43286133 2.9472656
-0.02659607 -0.69970703 -0.124938965 -0.24304199 0.79052734 1.6357422 -1.4121094 -2.9707031
0.23120117 -0.55810547 1.4697266 0.13830566 -0.28466797 0.038269043 0.84472656 -1.1816406
4.3320312 -1.2998047 0.47705078 -0.8569336 -0.5205078 2.1328125 -0.6948242 -0.20581055
-2.0410156 0.9453125 -0.7807617 0.66308594 0.3881836 0.93896484 -0.65771484 -0.42211914
0.6621094 0.7832031 -0.23217773 0.6479492 -0.43920898 -2.3828125 0.39282227 -0.7324219
0.390625 -0.10498047 -1.4814453 -0.49047852 -0.6035156 0.3774414 -0.57373047 2.2519531
-0.0826416 -1.3984375 -1.2666016 -0.7402344 -0.92529297 0.16259766 -1.0078125 1.2451172
-2.5585938 1.9462891 1.7939453 0.8618164 -0.24816895 0.46972656 -0.5576172 0.21862793
2.3476562 1.6611328 -0.17785645 0.20715332 -3.2890625 1.1757812 0.0949707 -0.1126709
-0.5449219 -0.8105469 1.0791016 -1.0820312 -0.13659668 -4.1367188 -0.20703125 -1.6972656
0.43066406 -0.89208984 0.05392456 0.52978516 -0.55029297 -0.47851562 0.0007972717 1.5556641
-1.8876953 -0.22363281 -0.30517578 0.7661133 0.63623047 0.31103516 0.4091797 -0.4013672
0.35742188 0.41967773 0.14111328 1.65625 -1.1445312 1.4091797 1.6191406 -1.5263672
0.5541992 0.22033691 1.5898438 -0.107666016 0.017837524 0.1472168 -1.1005859 1.3857422
-0.35327148 -0.73583984 0.06573486 -0.2487793 -1.9775391 1.2011719 0.27368164 0.83154297
-1.1884766 -0.13720703 -1.3378906 -0.20751953 -0.65478516 -0.78027344 -0.5854492 -0.23388672
-1.1054688 -0.7504883 1.0419922 0.87939453 0.9121094 -1.0673828 0.00032162666 -0.62597656
-0.82958984 -1.2519531 -1.4199219 -0.031082153 1.2607422 1.1035156 1.4111328 -2.0214844
0.5522461 -0.3293457 0.09423828 -1.6835938 -0.8779297 0.87890625 -0.06744385 -0.5839844
-0.032928467 3.2890625 -1.2578125 0.8496094 -1.7119141 0.8540039 -2.0898438 -1.09375
0.25317383 2.0859375 0.21142578 -0.22790527 -1.3193359 -0.22875977 -0.46362305 1.3466797
-0.5415039 -0.41723633 -1.3134766 0.9916992 1.0761719 4.7773438 -0.20458984 0.64404297
0.6040039 -0.74658203 -0.8745117 -1.8261719 0.19848633 2.109375 5.7890625 0.51123047
0.9399414 0.5839844 -4.234375 0.34204102 0.08728027 -4.4257812 2.9238281 1.9755859
0.3474121 0.043914795 -0.9584961 0.32641602 0.32250977 0.89746094 -0.7216797 -0.44873047
-0.75683594 -2.6816406 1.421875 2.0332031 -0.6269531 0.6879883 2.2734375 -1.4833984
7.5078125 1.6269531 2.5058594 0.9008789 -0.019927979 -5.4960938 -5.15625 -2.0175781
3.5683594 -0.5463867 -0.62109375 -2.0976562 -0.6274414 -11.71875 0.8671875 -5.0664062
-7.0742188 -2.2636719 2.4296875 -3.1210938 -0.33496094 2.8046875 0.7402344 -0.9716797
-0.41210938 -7.2851562 -1.734375 1.4511719 -0.61376953 1.9755859 2.3984375 -0.68603516
00000000: 00a0 c9be 00c0 ae3f 0080 4e3f 00a0 e73e
00000010: 0080 833e 00a0 f4bd 0000 6040 00a0 193f
00000020: 0080 973f 00a0 d6be 00a0 023f 0080 03bf
00000030: 0040 84be 0020 03be 00a0 dd3e 00a0 3c40
00000040: 00e0 d9bc 0020 33bf 00e0 ffbd 00e0 78be
00000050: 0060 4a3f 0060 d13f 00c0 b4bf 0020 3ec0
00000060: 00c0 6c3e 00e0 0ebf 0020 bc3f 00a0 0d3e
00000070: 00c0 91be 00c0 1c3d 0040 583f 0040 97bf
00000080: 00a0 8a40 0060 a6bf 0040 f43e 0060 5bbf
00000090: 0040 05bf 0080 0840 00e0 31bf 00c0 52be
000000a0: 00a0 02c0 0000 723f 00e0 47bf 00c0 293f
000000b0: 00c0 c63e 0060 703f 0060 28bf 0020 d8be
000000c0: 0080 293f 0080 483f 00c0 6dbe 00e0 253f
000000d0: 00e0 e0be 0080 18c0 0020 c93e 0080 3bbf
000000e0: 0000 c83e 0000 d7bd 00a0 bdbf 0020 fbbe
000000f0: 0080 1abf 0040 c13e 00e0 12bf 0020 1040
00000100: 0040 a9bd 0000 b3bf 0020 a2bf 0080 3dbf
00000110: 00e0 6cbf 0080 263e 0000 81bf 0060 9f3f
00000120: 00c0 23c0 0020 f93f 00a0 e53f 00a0 5c3f
00000130: 0020 7ebe 0080 f03e 00c0 0ebf 00e0 5f3e
00000140: 0040 1640 00a0 d43f 0020 36be 0020 543e
00000150: 0080 52c0 0080 963f 0080 c23d 00c0 e6bd
00000160: 0080 0bbf 0080 4fbf 0020 8a3f 0080 8abf
00000170: 00e0 0bbe 0060 84c0 0000 54be 0040 d9bf
00000180: 0080 dc3e 0060 64bf 00e0 5c3d 00a0 073f
00000190: 00e0 0cbf 0000 f5be 0000 513a 0020 c73f
000001a0: 00a0 f1bf 0000 65be 0040 9cbe 0020 443f
000001b0: 00e0 223f 0040 9f3e 0080 d13e 0080 cdbe
000001c0: 0000 b73e 00e0 d63e 0080 103e 0000 d43f
000001d0: 0080 92bf 0060 b43f 0040 cf3f 0060 c3bf
000001e0: 00e0 0d3f 00a0 613e 0080 cb3f 0080 dcbd
000001f0: 0020 923c 00c0 163e 00e0 8cbf 0060 b13f
00000200: 00e0 b4be 0060 3cbf 00a0 863d 00c0 7ebe
00000210: 0020 fdbf 00c0 993f 0020 8c3e 00e0 543f
00000220: 0020 98bf 0080 0cbe 0040 abbf 0080 54be
00000230: 00a0 27bf 00c0 47bf 00e0 15bf 0080 6fbe
00000240: 0080 8dbf 0020 40bf 0060 853f 0020 613f
00000250: 0080 693f 00a0 88bf 00a0 a839 0040 20bf
00000260: 0060 54bf 0040 a0bf 00c0 b5bf 00a0 febc
00000270: 0060 a13f 0040 8d3f 00a0 b43f 0060 01c0
00000280: 0060 0d3f 00a0 a8be 0000 c13d 0080 d7bf
00000290: 00c0 60bf 0000 613f 0020 8abd 0080 15bf
000002a0: 00e0 06bd 0080 5240 0000 a1bf 0080 593f
000002b0: 0020 dbbf 00a0 5a3f 00c0 05c0 0000 8cbf
000002c0: 00a0 813e 0080 0540 0080 583e 0060 69be
000002d0: 00e0 a8bf 0040 6abe 0060 edbe 0060 ac3f
000002e0: 00a0 0abf 00a0 d5be 0020 a8bf 00e0 7d3f
000002f0: 00c0 893f 00e0 9840 0080 51be 00e0 243f
00000300: 00a0 1a3f 0020 3fbf 00e0 5fbf 00c0 e9bf
00000310: 0040 4b3e 0000 0740 0040 b940 00e0 023f
00000320: 00a0 703f 0080 153f 0080 87c0 0020 af3e
00000330: 00c0 b23d 00a0 8dc0 0020 3b40 00e0 fc3f
00000340: 00e0 b13e 00e0 333d 0060 75bf 0020 a73e
00000350: 0020 a53e 00c0 653f 00c0 38bf 00c0 e5be
00000360: 00c0 41bf 00a0 2bc0 0000 b63f 0020 0240
00000370: 0080 20bf 0020 303f 0080 1140 00e0 bdbf
00000380: 0040 f040 0040 d03f 0060 2040 00a0 663f
00000390: 0040 a3bc 00e0 afc0 0000 a5c0 0020 01c0
000003a0: 0060 6440 00e0 0bbf 0000 1fbf 0040 06c0
000003b0: 00a0 20bf 0080 3bc1 0000 5e3f 0020 a2c0
000003c0: 0060 e2c0 00e0 10c0 0080 1b40 00c0 47c0
000003d0: 0080 abbe 0080 3340 0080 3d3f 00c0 78bf
000003e0: 0000 d3be 0020 e9c0 0000 debf 00c0 b93f
000003f0: 0020 1dbf 00e0 fc3f 0080 1940 00a0 2fbf

const_fold_opt__484 f4 [36, 1, 3, 3]
-0.99121094 -1.6259766 -1.0683594 -1.1396484 0.42236328 0.016326904 0.021499634 0.79248047
-0.12042236 0.36523438 0.039520264 0.2541504 -0.3256836 -1.8701172 0.058135986 -0.7109375
-0.7001953 0.05368042 1.1015625 1.0996094 -0.21850586 0.6816406 1.0195312 -0.7089844
0.00060367584 0.31445312 -0.6801758 0.95410156 0.121520996 -0.87939453 0.9008789 -0.1661377
-1.5429688 0.41430664 0.4868164 -0.6801758 0.9741211 -0.27856445 -0.9291992 0.93603516
-0.671875 -1.2773438 -0.26367188 -0.58251953 -1.1054688 -0.032073975 -0.97753906 -0.43725586
0.11621094 -1.8447266 -1.0283203 0.20593262 0.7285156 0.09375 0.3400879 -1.2246094
-0.4975586 -1.0087891 -1.5068359 0.4326172 -0.42285156 0.45507812 0.63183594 1.1162109
1.7421875 1.0371094 0.4880371 1.640625 0.22875977 -0.3569336 -0.72216797 -0.54248047
-0.5336914 0.3100586 0.07098389 -1.2714844 0.45117188 0.89990234 -1.1162109 0.58691406
0.7734375 0.5644531 1.4472656 0.2512207 -0.072509766 1.4453125 0.58691406 -0.68066406
-1.1171875 -0.5932617 0.4074707 1.2685547 0.25317383 0.3984375 1.6259766 1.6982422
0.15429688 -0.14770508 0.56689453 -0.95166016 -0.3388672 0.72998047 -1.5009766 -0.4633789
1.2382812 0.4892578 0.9482422 0.74316406 0.115722656 0.018554688 -0.33911133 -0.51953125
-1.8837891 -0.7207031 -0.23876953 -0.56347656 -0.2915039 -1.5849609 -1.8232422 -0.15222168
-0.0869751 0.32861328 0.5751953 1.0927734 0.65625 0.3400879 0.43579102 0.7939453
0.5332031 -0.5317383 -0.9716797 -0.87597656 -0.65478516 -0.96484375 -0.2980957 -0.7548828
-1.0849609 -1.1220703 0.5625 -0.011558533 -0.5444336 1.1210938 1.1748047 0.6113281
0.49267578 0.9033203 0.07659912 1.2949219 1.5869141 -0.0052833557 1.1748047 1.8935547
0.24572754 0.103393555 -0.0021972656 -0.29467773 0.014328003 -2.6171875 -0.050964355 -0.09320068
-0.22302246 -0.13134766 -1.2294922 -1.2587891 -0.50146484 0.26464844 1.4248047 0.5864258
0.6464844 0.8652344 0.37963867 -1.3789062 -0.036071777 1.1757812 -1.0390625 -0.050354004
1.625 0.14172363 0.27905273 0.7949219 1.515625 0.52490234 -0.33618164 1.1591797
2.015625 0.09313965 -0.15185547 0.10015869 -0.2788086 -0.61328125 -0.2479248 0.017730713
-1.1337891 -0.54248047 -0.062805176 -0.47753906 -0.4074707 -0.11175537 1.1699219 0.08935547
-0.92871094 1.6728516 0.3569336 -0.96533203 1.6777344 1.921875 -0.3774414 0.5048828
0.6796875 1.1298828 -0.11773682 -2.09375 -0.60302734 -0.14343262 -0.33007812 -0.042877197
-1.0537109 -0.49731445 0.43603516 -1.6035156 0.88720703 0.7421875 -0.50634766 1.3818359
0.5859375 0.15429688 1.1445312 0.024398804 -0.39648438 2.6796875 0.4794922 -0.5908203
0.70458984 0.65625 -0.14880371 -1.4707031 -0.92089844 0.23498535 -1.9111328 -0.63964844
-0.0947876 0.31396484 0.027435303 0.7104492 1.5322266 1.4355469 1.0458984 1.75
1.0205078 -0.4729004 0.5263672 0.5908203 2.1679688 1.3769531 1.3505859 1.4873047
00000000: 00c0 7dbf 0020 d0bf 00c0 88bf 00e0 91bf
00000010: 0040 d83e 00c0 853c 0020 b03c 00e0 4a3f
00000020: 00a0 f6bd 0000 bb3e 00e0 213d 0020 823e
00000030: 00c0 a6be 0060 efbf 0020 6e3d 0000 36bf
00000040: 0040 33bf 00e0 5b3d 0000 8d3f 00c0 8c3f
00000050: 00c0 5fbe 0080 2e3f 0080 823f 0080 35bf
00000060: 0040 1e3a 0000 a13e 0020 2ebf 0040 743f
00000070: 00e0 f83d 0020 61bf 00a0 663f 0020 2abe
00000080: 0080 c5bf 0020 d43e 0040 f93e 0020 2ebf
00000090: 0060 793f 00a0 8ebe 00e0 6dbf 00a0 6f3f
000000a0: 0000 2cbf 0080 a3bf 0000 87be 0020 15bf
000000b0: 0080 8dbf 0060 03bd 0040 7abf 00e0 dfbe
000000c0: 0000 ee3d 0020 ecbf 00a0 83bf 00e0 523e
000000d0: 0080 3a3f 0000 c03d 0020 ae3e 00c0 9cbf
000000e0: 00c0 febe 0020 81bf 00e0 c0bf 0080 dd3e
000000f0: 0080 d8be 0000 e93e 00c0 213f 00e0 8e3f
00000100: 0000 df3f 00c0 843f 00e0 f93e 0000 d23f
00000110: 0040 6a3e 00c0 b6be 00e0 38bf 00e0 0abf
00000120: 00a0 08bf 00c0 9e3e 0060 913d 00c0 a2bf
00000130: 0000 e73e 0060 663f 00e0 8ebf 0040 163f
00000140: 0000 463f 0080 103f 0040 b93f 00a0 803e
00000150: 0080 94bd 0000 b93f 0040 163f 0040 2ebf
00000160: 0000 8fbf 00e0 17bf 00a0 d03e 0060 a23f
00000170: 00a0 813e 0000 cc3e 0020 d03f 0060 d93f
00000180: 0000 1e3e 0040 17be 0020 113f 00a0 73bf
00000190: 0080 adbe 00e0 3a3f 0020 c0bf 0040 edbe
000001a0: 0080 9e3f 0080 fa3e 00c0 723f 0040 3e3f
000001b0: 0000 ed3d 0000 983c 00a0 adbe 0000 05bf
000001c0: 0020 f1bf 0080 38bf 0080 74be 0040 10bf
000001d0: 0040 95be 00e0 cabf 0060 e9bf 00e0 1bbe
000001e0: 0020 b2bd 0040 a83e 0040 133f 00e0 8b3f
000001f0: 0000 283f 0020 ae3e 0020 df3e 0040 4b3f
00000200: 0080 083f 0020 08bf 00c0 78bf 0040 60bf
00000210: 00a0 27bf 0000 77bf 00a0 98be 0040 41bf
00000220: 00e0 8abf 00a0 8fbf 0000 103f 0060 3dbc
00000230: 0060 0bbf 0080 8f3f 0060 963f 0080 1c3f
00000240: 0040 fc3e 0040 673f 00e0 9c3d 00c0 a53f
00000250: 0020 cb3f 0020 adbb 0060 963f 0060 f23f
00000260: 00a0 7b3e 00c0 d33d 0000 10bb 00e0 96be
00000270: 00c0 6a3c 0080 27c0 00c0 50bd 00e0 bebd
00000280: 0060 64be 0080 06be 0060 9dbf 0020 a1bf
00000290: 0060 00bf 0080 873e 0060 b63f 0020 163f
000002a0: 0080 253f 0080 5d3f 0060 c23e 0080 b0bf
000002b0: 00c0 13bd 0080 963f 0000 85bf 0040 4ebd
000002c0: 0000 d03f 0020 113e 00e0 8e3e 0080 4b3f
000002d0: 0000 c23f 0060 063f 0020 acbe 0060 943f
000002e0: 0000 0140 00c0 be3d 0080 1bbe 0020 cd3d
000002f0: 00c0 8ebe 0000 1dbf 00e0 7dbe 0040 913c
00000300: 0020 91bf 00e0 0abf 00a0 80bd 0080 f4be
00000310: 00a0 d0be 00e0 e4bd 00c0 953f 0000 b73d
00000320: 00c0 6dbf 0020 d63f 00c0 b63e 0020 77bf
00000330: 00c0 d63f 0000 f63f 0040 c1be 0040 013f
00000340: 0000 2e3f 00a0 903f 0020 f1bd 0000 06c0
00000350: 0060 1abf 00e0 12be 0000 a9be 00a0 2fbd
00000360: 00e0 86bf 00a0 febe 0040 df3e 0040 cdbf
00000370: 0020 633f 0000 3e3f 00a0 01bf 00e0 b03f
00000380: 0000 163f 0000 1e3e 0080 923f 00e0 c73c
00000390: 0000 cbbe 0080 2b40 0080 f53e 0040 17bf
000003a0: 0060 343f 0000 283f 0060 18be 0040 bcbf
000003b0: 00c0 6bbf 00a0 703e 00a0 f4bf 00c0 23bf
000003c0: 0020 c2bd 00c0 a03e 00c0 e03c 00e0 353f
000003d0: 0020 c43f 00c0 b73f 00e0 853f 0000 e03f
000003e0: 00a0 823f 0020 f2be 00c0 063f 0040 173f
000003f0: 00c0 0a40 0040 b03f 00e0 ac3f 0060 be3f

const_fold_opt__481 f4 [64, 1, 3, 3]
-0.39624023 -0.7026367 -1.4072266 -0.012435913 1.0556641 -1.5839844 -0.16442871 0.13537598
-0.5209961 0.9555664 -0.4230957 -0.6142578 0.2442627 1.4492188 -0.8120117 -0.05581665
0.2861328 -0.625 -0.59765625 0.20507812 0.030593872 -1.5605469 0.4326172 0.29589844
0.023208618 -0.68896484 -0.29614258 0.78808594 -0.12176514 0.10858154 1.0361328 0.5541992
-0.21801758 0.7529297 0.024993896 -0.32739258 -0.9814453 -1.7441406 -2.7382812 -0.29223633
-0.31030273 -0.38500977 -1.1796875 -0.1665039 -0.23547363 -1.3300781 -0.73291016 0.4260254
-0.6191406 -0.40942383 0.61083984 0.38330078 0.5317383 -0.11230469 -0.2088623 -1.0595703
-1.1582031 0.014228821 0.15356445 -0.18615723 0.31323242 0.122924805 0.16381836 1.5019531
-0.5332031 -0.7192383 0.3708496 -0.85302734 0.06781006 0.087402344 0.171875 0.108947754
-1.6767578 -0.49780273 0.24719238 -1.4267578 1.2607422 0.14099121 -0.6147461 -0.11053467
0.047729492 0.59375 0.28735352 -0.63720703 0.9453125 1.6298828 -0.70996094 0.1973877
0.13085938 -1.2070312 1.5751953 1.3925781 1.0576172 1.2734375 2.4765625 0.4104004
1.0048828 0.24645996 0.119628906 0.7080078 0.8935547 0.20715332 0.32128906 1.3076172
0.23022461 0.31860352 0.30615234 0.103637695 1.6679688 1.7880859 0.62402344 2.3378906
3.328125 1.9140625 0.52001953 1.2675781 0.5595703 0.22338867 -0.0234375 -0.103027344
-0.010253906 2.3203125 -0.24194336 0.037719727 -0.0028038025 -0.2841797 -3.5878906 -2.8789062
-0.8598633 -4.0664062 -3.4921875 -0.7705078 -2.0761719 -1.6132812 -0.81103516 0.23181152
0.109802246 0.6088867 0.9140625 1.4873047 0.46899414 0.71484375 1.1513672 0.8144531
-0.95458984 -0.43408203 -0.70996094 -0.7011719 -3.0683594 -0.6376953 -0.28588867 -0.3474121
-0.32006836 -0.7602539 0.6118164 0.117370605 -1.7324219 2.2773438 1.453125 -0.8173828
0.105163574 0.82470703 -0.875 -1.5214844 -1.1132812 -2.203125 -1.5761719 0.51904297
-0.14855957 0.60058594 1.3417969 -0.3088379 -0.60546875 -0.58984375 0.014816284 -0.6796875
-0.84472656 -0.09576416 -0.11193848 -0.15270996 0.018356323 0.8754883 1.6748047 0.47143555
-0.08026123 -0.2253418 1.8671875 0.36328125 0.55566406 0.55322266 0.49536133 0.36865234
0.7392578 0.55615234 -0.26367188 0.71777344 0.4580078 0.13256836 1.0732422 1.0859375
-0.5234375 0.7631836 0.5053711 -0.23669434 -0.44848633 -0.5136719 0.16381836 -0.42407227
-1.0859375 -0.22167969 -0.02368164 -1.6923828 -0.29345703 -0.13891602 -0.31054688 -0.609375
-2.4101562 -2.4238281 -1.3164062 -0.9770508 -0.5214844 -0.82910156 0.32373047 1.1894531
0.36450195 0.32495117 -0.055847168 -0.111572266 -0.06854248 -1.5673828 -0.05718994 -0.040771484
-0.3713379 -0.022766113 0.23205566 -0.14855957 -0.5175781 0.9794922 1.3916016 -0.4267578
0.7548828 0.5703125 0.117126465 0.052703857 0.30371094 0.78759766 -0.09118652 2.2753906
0.37451172 -0.074279785 -0.023590088 0.68603516 0.64501953 0.53564453 0.26611328 0.8671875
00000000: 00e0 cabe 00e0 33bf 0020 b4bf 00c0 4bbc
00000010: 0020 873f 00c0 cabf 0060 28be 00a0 0a3e
00000020: 0060 05bf 00a0 743f 00a0 d8be 0040 1dbf
00000030: 0020 7a3e 0080 b93f 00e0 4fbf 00a0 64bd
00000040: 0080 923e 0000 20bf 0000 19bf 0000 523e
00000050: 00a0 fa3c 00c0 c7bf 0080 dd3e 0080 973e
00000060: 0020 be3c 0060 30bf 00a0 97be 00c0 493f
00000070: 0060 f9bd 0060 de3d 00a0 843f 00e0 0d3f
00000080: 0040 5fbe 00c0 403f 00c0 cc3c 00a0 a7be
00000090: 0040 7bbf 0040 dfbf 0040 2fc0 00a0 95be
000000a0: 00e0 9ebe 0020 c5be 0000 97bf 0080 2abe
000000b0: 0020 71be 0040 aabf 00a0 3bbf 0020 da3e
000000c0: 0080 1ebf 00a0 d1be 0060 1c3f 0040 c43e
000000d0: 0020 083f 0000 e6bd 00e0 55be 00a0 87bf
000000e0: 0040 94bf 0020 693c 0040 1d3e 00a0 3ebe
000000f0: 0060 a03e 00c0 fb3d 00c0 273e 0040 c03f
00000100: 0080 08bf 0020 38bf 00e0 bd3e 0060 5abf
00000110: 00e0 8a3d 0000 b33d 0000 303e 0020 df3d
00000120: 00a0 d6bf 00e0 febe 0020 7d3e 00a0 b6bf
00000130: 0060 a13f 0060 103e 0060 1dbf 0060 e2bd
00000140: 0080 433d 0000 183f 0020 933e 0020 23bf
00000150: 0000 723f 00a0 d03f 00c0 35bf 0020 4a3e
00000160: 0000 063e 0080 9abf 00a0 c93f 0040 b23f
00000170: 0060 873f 0000 a33f 0080 1e40 0020 d23e
00000180: 00a0 803f 0060 7c3e 0000 f53d 0040 353f
00000190: 00c0 643f 0020 543e 0080 a43e 0060 a73f
000001a0: 00c0 6b3e 0020 a33e 00c0 9c3e 0040 d43d
000001b0: 0080 d53f 00e0 e43f 00c0 1f3f 00a0 1540
000001c0: 0000 5540 0000 f53f 0020 053f 0040 a23f
000001d0: 0040 0f3f 00c0 643e 0000 c0bc 0000 d3bd
000001e0: 0000 28bc 0080 1440 00c0 77be 0080 1a3d
000001f0: 00c0 37bb 0080 91be 00a0 65c0 0040 38c0
00000200: 0020 5cbf 0020 82c0 0080 5fc0 0040 45bf
00000210: 00e0 04c0 0080 cebf 00a0 4fbf 0060 6d3e
00000220: 00e0 e03d 00e0 1b3f 0000 6a3f 0060 be3f
00000230: 0020 f03e 0000 373f 0060 933f 0080 503f
00000240: 0060 74bf 0040 debe 00c0 35bf 0080 33bf
00000250: 0060 44c0 0040 23bf 0060 92be 00e0 b1be
00000260: 00e0 a3be 00a0 42bf 00a0 1c3f 0060 f03d
00000270: 00c0 ddbf 00c0 1140 0000 ba3f 0040 51bf
00000280: 0060 d73d 0020 533f 0000 60bf 00c0 c2bf
00000290: 0080 8ebf 0000 0dc0 00c0 c9bf 00e0 043f
000002a0: 0020 18be 00c0 193f 00c0 ab3f 0020 9ebe
000002b0: 0000 1bbf 0000 17bf 00c0 723c 0000 2ebf
000002c0: 0040 58bf 0020 c4bd 0040 e5bd 0060 1cbe
000002d0: 0060 963c 0020 603f 0060 d63f 0060 f13e
000002e0: 0060 a4bd 00c0 66be 0000 ef3f 0000 ba3e
000002f0: 0040 0e3f 00a0 0d3f 00a0 fd3e 00c0 bc3e
00000300: 0040 3d3f 0060 0e3f 0000 87be 00c0 373f
00000310: 0080 ea3e 00c0 073e 0060 893f 0000 8b3f
00000320: 0000 06bf 0060 433f 0060 013f 0060 72be
00000330: 00a0 e5be 0080 03bf 00c0 273e 0020 d9be
00000340: 0000 8bbf 0000 63be 0000 c2bc 00a0 d8bf
00000350: 0040 96be 0040 0ebe 0000 9fbe 0000 1cbf
00000360: 0040 1ac0 0020 1bc0 0080 a8bf 0020 7abf
00000370: 0080 05bf 0040 54bf 00c0 a53e 0040 983f
00000380: 00a0 ba3e 0060 a63e 00c0 64bd 0080 e4bd
00000390: 0060 8cbd 00a0 c8bf 0040 6abd 0000 27bd
000003a0: 0020 bebe 0080 babc 00a0 6d3e 0020 18be
000003b0: 0080 04bf 00c0 7a3f 0020 b23f 0080 dabe
000003c0: 0040 413f 0000 123f 00e0 ef3d 00e0 573d
000003d0: 0080 9b3e 00a0 493f 00c0 babd 00a0 1140
000003e0: 00c0 bf3e 0020 98bd 0040 c1bc 00a0 2f3f
000003f0: 0020 253f 0020 093f 0040 883e 0000 5e3f

const_fold_opt__479 f4 [36, 32, 1, 1]
-0.1751709 0.020309448 0.036590576 0.0970459 0.042907715 -0.020736694 0.045013428 0.0062561035
-0.04458618 -0.022369385 -0.026687622 0.002401352 0.023147583 0.01322937 -0.01537323 0.050109863
0.09906006 0.01008606 0.0104599 -0.021850586 0.04006958 -0.050476074 3.8802624e-05 -0.025985718
0.004447937 -0.01687622 -0.103393555 -0.05227661 -0.0021629333 0.047943115 0.03744507 -0.023620605
-0.051361084 0.10180664 0.16601562 0.0017757416 -0.0154953 -0.035125732 0.10974121 -0.09802246
0.040740967 0.031677246 -0.04171753 0.109191895 -0.053588867 -0.04562378 0.0791626 0.08666992
0.1430664 0.055633545 -0.049102783 0.12011719 -0.013069153 -0.049804688 0.030960083 0.034210205
-0.010063171 0.01411438 -0.23364258 -0.09692383 0.119018555 -0.4050293 -0.068237305 0.076293945
-0.044311523 0.088012695 -0.088378906 -0.091308594 -0.0034694672 -0.05456543 0.053619385 0.030776978
0.05847168 0.041015625 0.0071792603 0.08416748 0.014602661 0.06726074 -0.064331055 -0.10992432
0.054138184 0.052001953 -0.15734863 0.0043792725 -0.023117065 -0.0010271072 -0.054779053 0.01272583
0.037597656 0.028762817 -0.14916992 0.006072998 -0.04574585 0.021697998 0.070251465 0.0069122314
0.030593872 -0.0146484375 -0.020690918 -0.018096924 -0.051849365 0.035064697 0.031402588 0.010765076
-0.0748291 -0.07055664 0.037384033 0.047729492 -0.059417725 0.010658264 -0.02130127 0.018722534
0.0036621094 0.049835205 0.013008118 0.01828003 -0.030548096 -0.0026931763 -0.06341553 0.013648987
-0.004146576 0.024108887 -0.097595215 0.05633545 -0.027389526 -0.026260376 0.005126953 0.08673096
-0.10021973 -0.048675537 -0.13024902 0.13549805 -0.19714355 -0.062927246 0.07910156 -0.012519836
0.06604004 0.00040245056 0.034942627 0.03842163 -0.0121154785 -0.013969421 0.17871094 0.03829956
0.11566162 0.024108887 -0.11199951 0.23571777 -0.08605957 -0.0423584 -0.06173706 -0.024108887
-0.08929443 0.112854004 -0.19543457 0.12164307 0.032562256 -0.15344238 -0.22351074 0.24194336
0.018157959 -0.008605957 -0.052246094 -0.043395996 -0.040496826 0.11376953 -0.07672119 -0.08453369
0.06488037 -0.0793457 -0.072753906 -0.0039978027 -0.06933594 0.06085205 -0.0758667 -0.11798096
-0.024337769 -0.022964478 0.106933594 -0.04940796 -0.13476562 0.0034160614 -0.05380249 -0.024871826
-0.02217102 -0.045684814 -0.009559631 0.008422852 -0.061462402 0.05291748 0.070495605 -0.08270264
-0.020446777 -0.0715332 0.07946777 0.0067863464 -0.02558899 0.07409668 0.015716553 0.008575439
-0.15002441 0.19104004 -0.056671143 0.017745972 -0.013496399 -0.09753418 0.023147583 0.012451172
-0.05102539 -0.0019874573 0.038513184 -0.045196533 0.022781372 -0.018356323 1.9431114e-05 -0.02520752
-0.04699707 0.10913086 -0.06149292 -0.03643799 -0.011886597 0.0005631447 0.056365967 -0.0925293
-0.13049316 -0.0154800415 0.00021064281 0.06756592 -0.046813965 -0.013061523 -0.08288574 0.24243164
0.055633545 -0.000664711 -0.04449463 0.006160736 -0.0074005127 -0.11248779 -0.058441162 0.19628906
0.06222534 0.02532959 0.007873535 0.09161377 -0.05328369 0.0019369125 -0.06201172 -0.0020618439
0.02015686 0.072143555 -0.050628662 -0.037597656 0.0011072159 -0.15161133 0.06915283 0.14697266
00000000: 0060 33be 0060 a63c 00e0 153d 00c0 c63d
00000010: 00c0 2f3d 00e0 a9bc 0060 383d 0000 cd3b
00000020: 00a0 36bd 0040 b7bc 00a0 dabc 0060 1d3b
00000030: 00a0 bd3c 00c0 583c 00e0 7bbc 0040 4d3d
00000040: 00e0 ca3d 0040 253c 0060 2b3c 0000 b3bc
00000050: 0020 243d 00c0 4ebd 00c0 2238 00e0 d4bc
00000060: 00c0 913b 0040 8abc 00c0 d3bd 0020 56bd
00000070: 00c0 0dbb 0060 443d 0060 193d 0080 c1bc
00000080: 0060 52bd 0080 d03d 0000 2a3e 00c0 e83a
00000090: 00e0 7dbc 00e0 0fbd 00c0 e03d 00c0 c8bd
000000a0: 00e0 263d 00c0 013d 00e0 2abd 00a0 df3d
000000b0: 0080 5bbd 00e0 3abd 0020 a23d 0080 b13d
000000c0: 0080 123e 00e0 633d 0020 49bd 0000 f63d
000000d0: 0020 56bc 0000 4cbd 00a0 fd3c 0020 0c3d
000000e0: 00e0 24bc 0040 673c 0040 6fbe 0080 c6bd
000000f0: 00c0 f33d 0060 cfbe 00c0 8bbd 0040 9c3d
00000100: 0080 35bd 0040 b43d 0000 b5bd 0000 bbbd
00000110: 0060 63bb 0080 5fbd 00a0 5b3d 0020 fc3c
00000120: 0080 6f3d 0000 283d 0040 eb3b 0060 ac3d
00000130: 0040 6f3c 00c0 893d 00c0 83bd 0020 e1bd
00000140: 00c0 5d3d 0000 553d 0020 21be 0080 8f3b
00000150: 0060 bdbc 00a0 86ba 0060 60bd 0080 503c
00000160: 0000 1a3d 00a0 eb3c 00c0 18be 0000 c73b
00000170: 0060 3bbd 00c0 b13c 00e0 8f3d 0080 e23b
00000180: 00a0 fa3c 0000 70bc 0080 a9bc 0040 94bc
00000190: 0060 54bd 00a0 0f3d 00a0 003d 0060 303c
000001a0: 0040 99bd 0080 90bd 0020 193d 0080 433d
000001b0: 0060 73bd 00a0 2e3c 0080 aebc 0060 993c
000001c0: 0000 703b 0020 4c3d 0020 553c 00c0 953c
000001d0: 0040 fabc 0080 30bb 00e0 81bd 00a0 5f3c
000001e0: 00e0 87bb 0080 c53c 00e0 c7bd 00c0 663d
000001f0: 0060 e0bc 0020 d7bc 0000 a83b 00a0 b13d
00000200: 0040 cdbd 0060 47bd 0060 05be 00c0 0a3e
00000210: 00e0 49be 00e0 80bd 0000 a23d 0020 4dbc
00000220: 0040 873d 0000 d339 0020 0f3d 0060 1d3d
00000230: 0080 46bc 00e0 64bc 0000 373e 00e0 1c3d
00000240: 00e0 ec3d 0080 c53c 0060 e5bd 0060 713e
00000250: 0040 b0bd 0080 2dbd 00e0 7cbd 0080 c5bc
00000260: 00e0 b6bd 0020 e73d 0020 48be 0020 f93d
00000270: 0060 053d 0020 1dbe 00e0 64be 00c0 773e
00000280: 00c0 943c 0000 0dbc 0000 56bd 00c0 31bd
00000290: 00e0 25bd 0000 e93d 0020 9dbd 0020 adbd
000002a0: 00e0 843d 0080 a2bd 0000 95bd 0000 83bb
000002b0: 0000 8ebd 0040 793d 0060 9bbd 00a0 f1bd
000002c0: 0060 c7bc 0020 bcbc 0000 db3d 0060 4abd
000002d0: 0000 0abe 00e0 5f3b 0060 5cbd 00c0 cbbc
000002e0: 00a0 b5bc 0020 3bbd 00a0 1cbc 0000 0a3c
000002f0: 00c0 7bbd 00c0 583d 0060 903d 0060 a9bd
00000300: 0080 a7bc 0080 92bd 00c0 a23d 0060 de3b
00000310: 00a0 d1bc 00c0 973d 00c0 803c 0080 0c3c
00000320: 00a0 19be 00a0 433e 0020 68bd 0060 913c
00000330: 0020 5dbc 00c0 c7bd 00a0 bd3c 0000 4c3c
00000340: 0000 51bd 0040 02bb 00c0 1d3d 0020 39bd
00000350: 00a0 ba3c 0060 96bc 0000 a337 0080 cebc
00000360: 0080 40bd 0080 df3d 00e0 7bbd 0040 15bd
00000370: 00c0 42bc 00a0 133a 00e0 663d 0080 bdbd
00000380: 00a0 05be 00a0 7dbc 00e0 5c39 0060 8a3d
00000390: 00c0 3fbd 0000 56bc 00c0 a9bd 0040 783e
000003a0: 00e0 633d 0040 2eba 0040 36bd 00e0 c93b
000003b0: 0080 f2bb 0060 e6bd 0060 6fbd 0000 493e
000003c0: 00e0 7e3d 0080 cf3c 0000 013c 00a0 bb3d
000003d0: 0040 5abd 00e0 fd3a 0000 7ebd 0020 07bb
000003e0: 0020 a53c 00c0 933d 0060 4fbd 0000 1abd
000003f0: 0020 913a 0040 1bbe 00a0 8d3d 0080 163e

const_fold_opt__478 f4 [72, 1, 3, 3]
-1.0927734 -1.5244141 -0.42236328 -0.2454834 -1.0478516 -1.2070312 0.19750977 -0.41918945
-0.5253906 -0.47045898 -0.13720703 -0.23657227 -0.35327148 -0.99121094 -1.0498047 0.054229736
-0.6611328 -1.3251953 0.8305664 0.48901367 -0.18225098 -0.06591797 0.68066406 0.54248047
-0.2524414 -0.4267578 0.6748047 0.81640625 0.23474121 0.011856079 0.15075684 1.375
0.17321777 0.40649414 0.29052734 0.31689453 1.7861328 1.8232422 0.115234375 3.3261719
0.10406494 0.1484375 1.0244141 -0.46069336 -0.2644043 -0.3330078 -0.5073242 -0.3918457
-0.1083374 2.2910156 -0.16430664 -0.030593872 0.067871094 0.10266113 -0.10852051 -0.81591797
-0.921875 -0.08074951 -0.6513672 0.07574463 -0.21411133 0.051483154 -0.008399963 -0.24194336
-0.107788086 -0.4494629 -1.1513672 -3.5351562 -0.47973633 -0.91259766 -0.72265625 0.046783447
1.0957031 0.68408203 0.0970459 0.6645508 0.9350586 -0.025009155 -0.45263672 -0.056640625
-0.010986328 0.093322754 0.74072266 0.8876953 -0.2775879 1.0908203 1.1347656 -0.027008057
-0.008453369 0.42626953 0.44458008 0.3540039 0.37353516 1.4091797 0.34448242 -0.83691406
1.8564453 -0.70703125 -2.2988281 0.7480469 -0.07421875 0.013534546 0.26733398 -1.0732422
-0.17297363 -0.13305664 -0.19128418 -0.14697266 -1.3046875 0.026809692 -1.3847656 0.32592773
2.6503906 -0.40600586 -0.8564453 -0.5151367 -1.5605469 0.15637207 -0.36645508 -1.4570312
0.90185547 0.16271973 -0.5361328 0.5708008 0.75390625 0.33422852 -3.2539062 -1.3310547
0.5678711 0.2824707 -0.27270508 0.14196777 4.0664062 1.5283203 -0.96777344 -0.54589844
-0.2310791 0.2548828 0.2541504 -1.8808594 0.048034668 1.4892578 0.84521484 0.0892334
0.040008545 0.19360352 1.1425781 0.12536621 2.6152344 1.1806641 1.1035156 1.3876953
1.0175781 -0.9082031 -0.65234375 -0.9277344 -0.004436493 1.4707031 0.44921875 -0.6948242
0.0057296753 0.29418945 -0.8154297 -1.4970703 -1.0478516 -0.30249023 -0.36767578 -0.29541016
0.97314453 0.7685547 0.22497559 -0.21972656 0.13110352 -0.25708008 -0.13171387 1.4248047
-0.17663574 -0.64697266 -0.36914062 -0.51708984 0.22668457 -0.40673828 -0.17578125 0.028121948
-0.9169922 -0.30688477 1.1630859 0.66259766 0.40942383 0.28271484 0.12408447 0.22937012
0.00983429 -2.1328125 0.21496582 0.16540527 0.23986816 0.17443848 -0.20617676 -0.55322266
-0.8852539 -0.41259766 -1.1621094 -0.8540039 -0.52001953 -0.34448242 -0.3161621 0.06304932
0.47387695 0.60058594 0.34570312 1.0292969 0.2298584 -0.35913086 -0.14501953 -0.35375977
0.88720703 -0.5961914 -0.69921875 2.1425781 0.28198242 -1.1162109 0.77197266 0.5332031
-0.5205078 0.13696289 0.5878906 0.8022461 -0.0024375916 1.2626953 0.8432617 -0.038635254
0.19714355 0.41210938 -0.32006836 0.25073242 0.31079102 -0.23339844 -2.4355469 0.4074707
-0.25976562 -0.076171875 0.17382812 -0.81689453 -1.0654297 -0.30371094 -0.8208008 -4.0664062
-0.022476196 0.36547852 -0.036712646 -0.08300781 0.51660156 0.20458984 0.4597168 -0.23925781
00000000: 00e0 8bbf 0020 c3bf 0040 d8be 0060 7bbe
00000010: 0020 86bf 0080 9abf 0040 4a3e 00a0 d6be
00000020: 0080 06bf 00e0 f0be 0080 0cbe 0040 72be
00000030: 00e0 b4be 00c0 7dbf 0060 86bf 0020 5e3d
00000040: 0040 29bf 00a0 a9bf 00a0 543f 0060 fa3e
00000050: 00a0 3abe 0000 87bd 0040 2e3f 00e0 0a3f
00000060: 0040 81be 0080 dabe 00c0 2c3f 0000 513f
00000070: 0060 703e 0040 423c 0060 1a3e 0000 b03f
00000080: 0060 313e 0020 d03e 00c0 943e 0040 a23e
00000090: 00a0 e43f 0060 e93f 0000 ec3d 00e0 5440
000000a0: 0020 d53d 0000 183e 0020 833f 00e0 ebbe
000000b0: 0060 87be 0080 aabe 00e0 01bf 00a0 c8be
000000c0: 00e0 ddbd 00a0 1240 0040 28be 00a0 fabc
000000d0: 0000 8b3d 0040 d23d 0040 debd 00e0 50bf
000000e0: 0000 6cbf 0060 a5bd 00c0 26bf 0020 9b3d
000000f0: 0040 5bbe 00e0 523d 00a0 09bc 00c0 77be
00000100: 00c0 dcbd 0020 e6be 0060 93bf 0040 62c0
00000110: 00a0 f5be 00a0 69bf 0000 39bf 00a0 3f3d
00000120: 0040 8c3f 0020 2f3f 00c0 c63d 0020 2a3f
00000130: 0060 6f3f 00e0 ccbc 00c0 e7be 0000 68bd
00000140: 0000 34bc 0020 bf3d 00a0 3d3f 0040 633f
00000150: 0020 8ebe 00a0 8b3f 0040 913f 0040 ddbc
00000160: 0080 0abc 0040 da3e 00a0 e33e 0040 b53e
00000170: 0040 bf3e 0060 b43f 0060 b03e 0040 56bf
00000180: 00a0 ed3f 0000 35bf 0020 13c0 0080 3f3f
00000190: 0000 98bd 00c0 5d3c 00e0 883e 0060 89bf
000001a0: 0020 31be 0040 08be 00e0 43be 0080 16be
000001b0: 0000 a7bf 00a0 db3c 0040 b1bf 00e0 a63e
000001c0: 00a0 2940 00e0 cfbe 0040 5bbf 00e0 03bf
000001d0: 00c0 c7bf 0020 203e 00a0 bbbe 0080 babf
000001e0: 00e0 663f 00a0 263e 0040 09bf 0020 123f
000001f0: 0000 413f 0020 ab3e 0040 50c0 0060 aabf
00000200: 0060 113f 00a0 903e 00a0 8bbe 0060 113e
00000210: 0020 8240 00a0 c33f 00c0 77bf 00c0 0bbf
00000220: 00a0 6cbe 0080 823e 0020 823e 00c0 f0bf
00000230: 00c0 443d 00a0 be3f 0060 583f 00c0 b63d
00000240: 00e0 233d 0040 463e 0040 923f 0060 003e
00000250: 0060 2740 0020 973f 0040 8d3f 00a0 b13f
00000260: 0040 823f 0080 68bf 0000 27bf 0080 6dbf
00000270: 0060 91bb 0040 bc3f 0000 e63e 00e0 31bf
00000280: 00c0 bb3b 00a0 963e 00c0 50bf 00a0 bfbf
00000290: 0020 86bf 00e0 9abe 0040 bcbe 0040 97be
000002a0: 0020 793f 00c0 443f 0060 663e 0000 61be
000002b0: 0040 063e 00a0 83be 00e0 06be 0060 b63f
000002c0: 00e0 34be 00a0 25bf 0000 bdbe 0060 04bf
000002d0: 0020 683e 0040 d0be 0000 34be 0060 e63c
000002e0: 00c0 6abf 0020 9dbe 00e0 943f 00a0 293f
000002f0: 00a0 d13e 00c0 903e 0020 fe3d 00e0 6a3e
00000300: 0020 213c 0080 08c0 0020 5c3e 0060 293e
00000310: 00a0 753e 00a0 323e 0020 53be 00a0 0dbf
00000320: 00a0 62bf 0040 d3be 00c0 94bf 00a0 5abf
00000330: 0020 05bf 0060 b0be 00e0 a1be 0020 813d
00000340: 00a0 f23e 00c0 193f 0000 b13e 00c0 833f
00000350: 0060 6b3e 00e0 b7be 0080 14be 0020 b5be
00000360: 0020 633f 00a0 18bf 0000 33bf 0020 0940
00000370: 0060 903e 00e0 8ebf 00a0 453f 0080 083f
00000380: 0040 05bf 0040 0c3e 0080 163f 0060 4d3f
00000390: 00c0 1fbb 00a0 a13f 00e0 573f 0040 1ebd
000003a0: 00e0 493e 0000 d33e 00e0 a3be 0060 803e
000003b0: 0020 9f3e 0000 6fbe 00e0 1bc0 00a0 d03e
000003c0: 0000 85be 0000 9cbd 0000 323e 0020 51bf
000003d0: 0060 88bf 0080 9bbe 0020 52bf 0020 82c0
000003e0: 0020 b8bc 0020 bb3e 0060 16bd 0000 aabd
000003f0: 0040 043f 0080 513e 0060 eb3e 0000 75be

const_fold_opt__476 f4 [88, 1, 3, 3]
1.6328125 1.6572266 1.5175781 0.9404297 1.2714844 0.9682617 1.4863281 1.2587891
0.57714844 -0.0881958 0.16467285 0.45483398 -1.1660156 -0.71191406 0.5566406 -1.5751953
-0.6069336 0.9379883 -0.3239746 0.09851074 -0.4025879 -2.5976562 -2.7460938 -0.48657227
-2.0273438 -2.7460938 -0.46411133 -0.08404541 1.9306641 1.2060547 -1.3515625 0.8964844
0.66064453 -0.9824219 0.22631836 0.0027160645 -0.121520996 -1.515625 -0.4050293 -1.4833984
-2.4453125 -0.4321289 -1.5107422 -1.3164062 -0.0043678284 -0.19934082 -0.012435913 0.6201172
1.0214844 1.0654297 1.1142578 0.5498047 1.265625 1.3320312 -0.62402344 -1.1035156
-1.3886719 -0.080322266 -1.4189453 -1.2470703 0.65283203 -0.28808594 -0.3322754 1.4082031
1.2851562 0.3059082 0.77441406 0.8457031 0.28125 0.27172852 -0.19494629 0.7602539
-0.6801758 -1.4765625 -1.1523438 -1.4394531 -2.4257812 -1.8789062 -1.1289062 -1.7480469
-1.7724609 0.37890625 1.0498047 1.1425781 -0.33691406 0.8618164 1.0966797 -0.8173828
0.51416016 1.171875 2.0703125 1.7060547 -0.62060547 0.34643555 -0.88378906 -0.3869629
-2.9511719 -1.4589844 0.5810547 -0.90771484 0.39086914 0.7636719 -1.4140625 -0.39111328
0.15344238 -1.9433594 -1.6523438 -0.72021484 -4.6054688 -4.578125 -3.2714844 -5.4804688
-4.1679688 -3.1445312 -2.5253906 -2.4316406 -2.0214844 0.1217041 -0.52685547 -0.6791992
0.1303711 0.24707031 -0.55371094 0.62939453 0.93652344 0.4711914 1.1572266 0.6328125
-0.029159546 0.11431885 -0.78466797 -1.2792969 -1.5371094 -2.5390625 -1.7861328 1.2861328
1.6318359 0.4584961 1.4677734 2.0019531 0.5048828 0.14428711 0.66796875 0.6982422
2.8691406 3.6328125 0.78027344 4.2109375 4.484375 1.2568359 2.375 2.1367188
0.69189453 -0.9536133 -1.4101562 -1.8173828 0.03604126 -0.028717041 -0.38671875 0.625
0.6191406 0.28857422 -0.51123047 -0.42529297 -1.0615234 -0.86376953 -1.5195312 -1.6005859
-1.4101562 -1.9628906 -1.4306641 -1.0595703 -1.2382812 1.9482422 -0.39233398 -0.87109375
1.4091797 1.2011719 1.3964844 0.9580078 -1.5810547 -1.5869141 0.11798096 -1.4267578
-1.3710938 0.39160156 -0.8618164 -0.09411621 0.32421875 -1.5488281 -1.3613281 -0.6040039
-0.77685547 -1.0458984 -0.34277344 -0.09472656 -0.40576172 -0.5878906 -1.6914062 -2.1152344
-1.6601562 -1.6923828 -1.90625 -1.4111328 -0.42041016 -0.8959961 -0.7988281 -0.79345703
-1.4023438 0.98583984 -0.89501953 -1.6201172 0.64404297 -0.7495117 -0.9555664 0.2130127
-2.0117188 -0.6582031 -0.2878418 -1.4501953 -0.61035156 -1.7919922 -1.3417969 -0.8251953
-0.85791016 1.2802734 1.3515625 1.0957031 0.61083984 1.0869141 0.5053711 0.084106445
0.44628906 -0.078125 -0.28295898 -1.2910156 -1.0605469 0.3798828 -0.2919922 -1.1123047
0.41625977 0.14135742 -0.4177246 0.6723633 -0.44799805 -0.8076172 1.7861328 0.5229492
-0.8100586 2.3398438 0.6298828 -0.0146865845 -2.3105469 -2.0175781 -1.2041016 -1.9072266
00000000: 0000 d13f 0020 d43f 0040 c23f 00c0 703f
00000010: 00c0 a23f 00e0 773f 0040 be3f 0020 a13f
00000020: 00c0 133f 00a0 b4bd 00a0 283e 00e0 e83e
00000030: 0040 95bf 0040 36bf 0080 0e3f 00a0 c9bf
00000040: 0060 1bbf 0020 703f 00e0 a5be 00c0 c93d
00000050: 0020 cebe 0040 26c0 00c0 2fc0 0020 f9be
00000060: 00c0 01c0 00c0 2fc0 00a0 edbe 0020 acbd
00000070: 0020 f73f 0060 9a3f 0000 adbf 0080 653f
00000080: 0020 293f 0080 7bbf 00c0 673e 0000 323b
00000090: 00e0 f8bd 0000 c2bf 0060 cfbe 00e0 bdbf
000000a0: 0080 1cc0 0040 ddbe 0060 c1bf 0080 a8bf
000000b0: 0020 8fbb 0020 4cbe 00c0 4bbc 00c0 1e3f
000000c0: 00c0 823f 0060 883f 00a0 8e3f 00c0 0c3f
000000d0: 0000 a23f 0080 aa3f 00c0 1fbf 0040 8dbf
000000e0: 00c0 b1bf 0080 a4bd 00a0 b5bf 00a0 9fbf
000000f0: 0020 273f 0080 93be 0020 aabe 0040 b43f
00000100: 0080 a43f 00a0 9c3e 0040 463f 0080 583f
00000110: 0000 903e 0020 8b3e 00a0 47be 00a0 423f
00000120: 0020 2ebf 0000 bdbf 0080 93bf 0040 b8bf
00000130: 0040 1bc0 0080 f0bf 0080 90bf 00c0 dfbf
00000140: 00e0 e2bf 0000 c23e 0060 863f 0040 923f
00000150: 0080 acbe 00a0 5c3f 0060 8c3f 0040 51bf
00000160: 00a0 033f 0000 963f 0080 0440 0060 da3f
00000170: 00e0 1ebf 0060 b13e 0040 62bf 0020 c6be
00000180: 00e0 3cc0 00c0 babf 00c0 143f 0060 68bf
00000190: 0020 c83e 0080 433f 0000 b5bf 0040 c8be
000001a0: 0020 1d3e 00c0 f8bf 0080 d3bf 0060 38bf
000001b0: 0060 93c0 0080 92c0 0060 51c0 0060 afc0
000001c0: 0060 85c0 0040 49c0 00a0 21c0 00a0 1bc0
000001d0: 0060 01c0 0040 f93d 00e0 06bf 00e0 2dbf
000001e0: 0080 053e 0000 7d3e 00c0 0dbf 0020 213f
000001f0: 00c0 6f3f 0040 f13e 0020 943f 0000 223f
00000200: 00e0 eebc 0020 ea3d 00e0 48bf 00c0 a3bf
00000210: 00c0 c4bf 0080 22c0 00a0 e4bf 00a0 a43f
00000220: 00e0 d03f 00c0 ea3e 00e0 bb3f 0020 0040
00000230: 0040 013f 00c0 133e 0000 2b3f 00c0 323f
00000240: 00a0 3740 0080 6840 00c0 473f 00c0 8640
00000250: 0080 8f40 00e0 a03f 0000 1840 00c0 0840
00000260: 0020 313f 0020 74bf 0080 b4bf 00a0 e8bf
00000270: 00a0 133d 0040 ebbc 0000 c6be 0000 203f
00000280: 0080 1e3f 00c0 933e 00e0 02bf 00c0 d9be
00000290: 00e0 87bf 0020 5dbf 0080 c2bf 00e0 ccbf
000002a0: 0080 b4bf 0040 fbbf 0020 b7bf 00a0 87bf
000002b0: 0080 9ebf 0060 f93f 00e0 c8be 0000 5fbf
000002c0: 0060 b43f 00c0 993f 00c0 b23f 0040 753f
000002d0: 0060 cabf 0020 cbbf 00a0 f13d 00a0 b6bf
000002e0: 0080 afbf 0080 c83e 00a0 5cbf 00c0 c0bd
000002f0: 0000 a63e 0040 c6bf 0040 aebf 00a0 1abf
00000300: 00e0 46bf 00e0 85bf 0080 afbe 0000 c2bd
00000310: 00c0 cfbe 0080 16bf 0080 d8bf 0060 07c0
00000320: 0080 d4bf 00a0 d8bf 0000 f4bf 00a0 b4bf
00000330: 0040 d7be 0060 65bf 0080 4cbf 0020 4bbf
00000340: 0080 b3bf 0060 7c3f 0020 65bf 0060 cfbf
00000350: 00e0 243f 00e0 3fbf 00a0 74bf 0020 5a3e
00000360: 00c0 00c0 0080 28bf 0060 93be 00a0 b9bf
00000370: 0040 1cbf 0060 e5bf 00c0 abbf 0040 53bf
00000380: 00a0 5bbf 00e0 a33f 0000 ad3f 0040 8c3f
00000390: 0060 1c3f 0020 8b3f 0060 013f 0040 ac3d
000003a0: 0080 e43e 0000 a0bd 00e0 90be 0040 a5bf
000003b0: 00c0 87bf 0080 c23e 0080 95be 0060 8ebf
000003c0: 0020 d53e 00c0 103e 00e0 d5be 0020 2c3f
000003d0: 0060 e5be 00c0 4ebf 00a0 e43f 00e0 053f
000003e0: 0060 4fbf 00c0 1540 0040 213f 00a0 70bc
000003f0: 00e0 13c0 0020 01c0 0020 9abf 0020 f4bf
